tutorial/model_weights_digits_256neurons.pth (torch, 223480 bytes, 6 tensors)

linear_relu_stack.0.weight f4 [64, 784]
00000000: c1fa ad3c b363 6e3c 934e 08bc 53cb 57bc
00000010: 4135 70bc f719 2ebc 4e85 82bc 13e6 ca3b
00000020: 6e9d 873b 37ce 22bc 5a14 db3c 93d7 d0ba
00000030: ea75 df3c 434b ee3c 65a2 173c 1ea6 c1bc
00000040: 312e ff3c 87d0 bcbc ee91 1bbb 4a9a 9739
00000050: c439 0ebd 17da 43bc 0661 033d 9c6f f63c
00000060: 3068 aabc 9304 58bb cc26 fabc 3e69 bfbc
00000070: 5324 72bc 0118 4bb9 5e1d b5bc 9cab 3fbc
00000080: b472 65bc 6f54 0bbc 4e03 12bc 089e bebc
00000090: 7d91 8fbc 836b f4bc d4b3 02bd 453b af3c
000000a0: 1018 953b ffa7 603c 66f8 193c 5658 003d
000000b0: 9aa3 883c e0f2 ab3c b178 03bb d307 c9bb
000000c0: b94b 04bd fa7b 9fbc 007f cb3b aa30 11bd
000000d0: b51b 9e3c d713 893c 6ab7 e33c 8c31 f73c
000000e0: 65af aebc c574 853c 9398 ca3c 4129 bf3c
000000f0: f8fb 4fbc a231 653c c389 7d3b 0240 193c
00000100: 0261 ee3b b788 133b 9cdb f33c 7c4b 05bd
00000110: 60d1 aabc 7d59 85bc 90a6 3abc dffc 3abd
00000120: 6970 a2bc e2db 09bd d313 a4bc ef5a 783c
00000130: 87db f63c 5620 d2bc b6ac c7bc 8cc6 c4bc
00000140: 7611 233a dfe9 0cbc f8d0 f13b 40c6 93bc
00000150: d1b3 ba3c 2586 cd3c 1ab1 a93c 5452 933b
00000160: 5833 d4bc f4b7 d3bc 0bba 163b fb6d ebbc
00000170: ce79 88bc 558e 04bd bb51 333a 9cc4 80bc
00000180: bb54 513c 6288 15bd 0d3f 193c f3c3 57bc
00000190: 27ae cabb 9a3c 203d 9234 3a3d ca29 edbc
000001a0: 4973 353d e13a 813c 85bd 04bb 8985 c53c
000001b0: 39ca f0bc 131f 44bc 1291 9dbc 5af3 823c
000001c0: de33 b3bc 485b 46bc 24ce 8c3c d385 87bc
000001d0: 086a 753b 10bc 8a3c 2255 fc3c bb2c 5f3c
000001e0: 5f3a efbc a5ec 39bd ebb8 1abc c5b8 1abd
000001f0: ee06 0fbd 5e53 713b d9eb 2f3c 6750 f93c
00000200: 82bb a03c 2f2d 433d 51a0 2c3d f103 e13c
00000210: 876e fbbc 1b91 893a da1a 373c 404f 53ba
00000220: 93ea 6cbc 4fe5 033d 40dc 25bb e896 c4bc
00000230: 8c38 08bd 2e72 c13b 7f8f ec3c 2874 0abd
00000240: 069c ae3c 71f7 fabc 61f3 b8bc ed54 4c3b
00000250: bd08 77bd b74b 80bd 3b11 b2bd 90c3 37bd
00000260: bb66 08bd 8c29 b4bb 3223 eebc b8bb b0bc
00000270: 5acf 4e3c 5878 9d3d 9960 863d 6d50 e03c
00000280: 8145 8e3d c185 563c 9ee5 983c 36d8 62bc
00000290: 0c56 d2bb 9f11 c7bc d6c6 97bc f9e0 653a
000002a0: e0cf 05bc c818 163c 7f9b 113b 9d80 47bc
000002b0: 79df b5bc 7d25 d4bc 22c7 2d3b 802d 8fbd
000002c0: 2ef4 78bd 8994 45bd bfff d0bd a5b5 c9bd
000002d0: 00fa 89bd dc4c a4bd 7549 66bd 6cd4 90bd
000002e0: c932 343d 5289 8d3c 27f2 1d3d 3c23 d83c
000002f0: b3a4 5c3d 7049 8a3d 4a8e f43c 9169 403d
00000300: e653 16bc c45b 1a3d c35e d2bc 8595 5dbc
00000310: dc28 393c 2fca d2bc 2f60 76bc e716 6d3c
00000320: 59dd ce3c 1519 5a3c ad6f 5abd 3c59 f3bc
00000330: 2b5c 66bd 3abd d6bd 6d77 d6bd 9ff2 73bd
00000340: 08d0 86bd 6abf 45bd 8abd a43c 7a6e 933d
00000350: 08db d53d 2fb2 af3d 055c 813d a899 8f3d
00000360: 7221 903d 730b 8c3d 4eb5 a23d 0f7c 883d
00000370: d813 5f3c 4706 a63c 40cb dbba a4cd 62ba
00000380: 4f3c 0f3d fc86 bf3c 546a 06bd d6a5 7f3c
00000390: 9b6f a4bb 926d c13c cbbf e9bc 8ed9 bebd
000003a0: 61ac 31bd 7acb 05bd 2bcf 35bc d78d 81bc
000003b0: aa41 2bbd f8d7 ee3b 563f 9bbc 9ba4 0ebc
000003c0: dacd 7e3d 9f10 3b3c 541a 2a3d 33b8 ad3c
000003d0: 1e54 853d c568 423d 15f6 843d b0e6 7d3d
000003e0: 578c cf3c ad11 e0bc 2364 363c 74c3 b03c
000003f0: b799 193c 973f 48bc c53b 1c3b a5ca 5abc
0.021237733 0.014550137 -0.008319515 -0.013171035 -0.014661134 -0.010626308 -0.015932705 0.0061919778
0.00413864 -0.009936861 0.026743103 -0.0015933387 0.027277905 0.029088622 0.0092550265 -0.023638781
0.031149955 -0.023048652 -0.0023738104 0.0002891592 -0.03472306 -0.011953852 0.03207495 0.030082516
-0.020801634 -0.003296171 -0.030536078 -0.023365613 -0.014779168 -0.00019368531 -0.02210873 -0.01169863
-0.014004398 -0.008504017 -0.008911921 -0.023268715 -0.017525429 -0.029836422 -0.03190978 0.021390567
0.0045499876 0.013711928 0.009397602 0.031334244 0.016679574 0.020989835 -0.0020060951 -0.006134966
-0.032298777 -0.019468296 0.006210208 -0.0354468 0.019300321 0.016733093 0.02779742 0.030174993
-0.021323869 0.016291032 0.024730956 0.023335101 -0.012694351 0.013988884 0.0038686849 0.00935364
0.007274748 0.0022511908 0.029767804 -0.03254269 -0.02085179 -0.016278023 -0.011392251 -0.045651313
-0.019828992 -0.033656962 -0.020028984 0.015158399 0.030133976 -0.025650185 -0.024374347 -0.024020456
0.00062205584 -0.008600681 0.0073796473 -0.018038869 0.022790821 0.02508838 0.020714331 0.0044958983
-0.025903389 -0.025844552 0.0022999074 -0.028738966 -0.016659644 -0.0323623 0.0006840487 -0.01571875
0.012776549 -0.036507018 0.009353411 -0.0131692765 -0.0061853114 0.039120294 0.04546029 -0.02895059
0.044299398 0.015775146 -0.0020254564 0.024111526 -0.029393302 -0.011970299 -0.019234214 0.01598518
-0.021875318 -0.012106724 0.01718814 -0.016543305 0.0037447233 0.016935378 0.030802313 0.013621504
-0.029202638 -0.045391697 -0.009443502 -0.037773866 -0.034918718 0.0036823372 0.010737383 0.030433847
0.01962066 0.047650512 0.042145077 0.0274677 -0.030692352 0.0010495515 0.0111758355 -0.00080608204
-0.014460224 0.032201108 -0.0025308281 -0.023997739 -0.033257052 0.005903504 0.028877018 -0.03380218
0.021314632 -0.030635567 -0.02257699 0.003117855 -0.060311068 -0.062644415 -0.08694693 -0.044864237
-0.033301096 -0.005498117 -0.029069517 -0.021573886 0.012622679 0.076889694 0.06561393 0.0273821
0.069468506 0.013093413 0.018664178 -0.013845494 -0.006418949 -0.024300395 -0.01852743 0.000876918
-0.008167237 0.009161182 0.0022217927 -0.01217666 -0.022201287 -0.025896782 0.0026516397 -0.069911
-0.060779743 -0.048237357 -0.1020503 -0.09849099 -0.06737137 -0.08022472 -0.056222398 -0.07071766
0.043993745 0.017277393 0.038561013 0.026383989 0.053868007 0.06752288 0.029853005 0.046975676
-0.009175276 0.03768517 -0.025679952 -0.013524418 0.011301246 -0.025731174 -0.01503758 0.014470792
0.025252031 0.013311644 -0.05332916 -0.029705636 -0.056240242 -0.10485311 -0.104719974 -0.059557553
-0.065826476 -0.04827825 0.02010991 0.07198806 0.104421675 0.08578908 0.063163795 0.070117295
0.07037629 0.06838121 0.079447374 0.06664287 0.013615571 0.020266665 -0.0016768947 -0.00086518587
0.034969624 0.023379795 -0.032816246 0.015603503 -0.005018187 0.023611818 -0.028533837 -0.09318839
-0.043377284 -0.032664753 -0.011096756 -0.015814705 -0.04181067 0.007288929 -0.0189511 -0.008706237
0.062208034 0.011417537 0.041529015 0.021205997 0.06510185 0.047463197 0.06492249 0.06198758
0.025335474 -0.027352178 0.011132273 0.021577574 0.009375027 -0.012222192 0.0023839336 -0.013353978

linear_relu_stack.0.bias f4 [64]
00000000: a31b e53b e87a dbbc 5777 483d 4723 d8ba
00000010: 22eb 2e3d 6232 6c3e 5dc3 01bc e696 283c
00000020: ecc8 fc3c 26f1 223d 05fa a23d bb5e 6abb
00000030: eace 96bd 06c1 73bd 9bff 96bc 6fb8 ff3d
00000040: a4e4 88bd 1b8f c23d 1891 de3c 2f8d 25bd
00000050: 45e6 8e3d 86c4 82bd cfd4 673e 4117 3d3e
00000060: 4863 3bbc 1297 343d 17d7 f43d e31e 36bd
00000070: a218 123e 55e0 0e3c 46e7 80be 62b5 833d
00000080: a339 973c 0f91 91bd 82af 163c 068c c4bb
00000090: 076f 8c3e 517f 4c3d 8f43 023d 01d5 adbb
000000a0: 03a6 4f3e 534d e63d 055f 5abe 2a20 b13d
000000b0: 6282 843d 081b d5bd 2028 88bc 4625 d43d
000000c0: d55e a5bd 5db5 653d 7a7a 863d fd70 2dbe
000000d0: 57c1 043e ec6c a23d 2edf 173e 2344 8e3d
000000e0: 1eb5 aabd d0f7 933d b9df 2cbd 67fe db3c
000000f0: 997f f13c 3e77 983b 9720 cdbd db4c a53e
0.00699182 -0.026792005 0.048941936 -0.0016490006 0.04270471 0.23066095 -0.007920113 0.010289883
0.030857526 0.03978076 0.07957844 -0.003576203 -0.073636845 -0.059510253 -0.018432429 0.1248635
-0.06684235 0.094999515 0.027168795 -0.040417846 0.06977514 -0.0638514 0.22639774 0.18465902
-0.011437245 0.044089384 0.11955088 -0.04446305 0.14267209 0.008720477 -0.25176448 0.064310804
0.0184601 -0.07107746 0.009197118 -0.0059981374 0.27428457 0.049926106 0.03180271 -0.005304933
0.20278172 0.11245217 -0.2132531 0.08648713 0.06470181 -0.104055464 -0.016620696 0.10358672
-0.080747284 0.056081165 0.06566329 -0.16937633 0.12964378 0.079309314 0.1483123 0.0694659
-0.083353266 0.07225001 -0.042205546 0.026854707 0.029479789 0.0046528867 -0.10015982 0.322852

linear_relu_stack.2.weight f4 [64, 64]
00000000: db30 fdbb 5063 703d e88d 463e bca6 d53d
00000010: 9b70 763e ae10 6cbe 4e0f 2ebe 94d7 eb3e
00000020: 15df 38bc 7b95 bfbd a678 ce3d 87cb c53d
00000030: 00fc 13be 0d49 5ebd b064 e5bd 639f 5cbe
00000040: 6443 f23d 16a9 99bd b4d6 763e 3907 083e
00000050: 0d96 ae3e b792 423d bfce 87bd 89a7 1b3e
00000060: ec03 d63d f56a 70bd 9596 f53d 1b10 bfbc
00000070: b3ec 4cbe 7347 80bd 2b3c 8dbd b7d2 a1bd
00000080: b55d 8fbd cdde 4c3e 33b5 1d3e c320 b73d
00000090: 411d 38be 82dd 0fbe 220d 123e d6cc ae3c
000000a0: 2be2 7e3d e58c 2cbb 2818 9d3c b39a e7bc
000000b0: 746c 47bd c12b 943e 3c26 cbbd a49d 80bd
000000c0: 2cd8 1d3e 7ef4 05bd 146a 81bd 38a0 bebd
000000d0: 7d72 3b3e af2b d7be 3246 313e 4943 19be
000000e0: 5a16 d33a 7aad 2f3e 3675 5cbc 6033 60bc
000000f0: 168b 393d 6c44 e73d 502a 9d3c 09b0 563e
00000100: 27a1 983d 369b 3bbd 9b17 30bd 51a6 d3bd
00000110: 96fd 573e 6287 09be a080 d13d 38f4 033e
00000120: fa08 a33d 9028 81bd 6130 94bd 6120 0b3e
00000130: 3d38 173d b0d5 20be 06cd c43d 868f 0c3e
00000140: 1da6 1cbe f5d2 623d fea7 a43d 35c4 933d
00000150: 18e5 9fbd 27c9 a9bd 2c27 b7bc a0c9 09be
00000160: 35fb ba3d 9178 83bd d657 263d d0dd 233c
00000170: b77a 47be 8fef 35be d102 debd b3a4 c7bd
00000180: e3b5 9c3c 0577 acbc 697e ba3d a146 d53d
00000190: a9d2 403e c1da cebd 5e12 79bc 6391 3fbc
000001a0: 0489 6a3c 4c96 a3bd 92ea fc3d 78ba 72bd
000001b0: e49e 063d ce3c 5bbd 3df4 333e 60d3 7e3c
000001c0: 44fa cc3c a142 46bd 1040 c53b 7a0d 3dbe
000001d0: c29c 063e ffd6 adbd 3134 cbbd 4790 dd3d
000001e0: 35eb acbd 6f3e 673e 66fb a43c 7ff4 d43d
000001f0: ebfb 8c3d c144 ccbd 5556 553c ab6b 4e3e
00000200: a066 e6bc 8787 ed3d 91ab 993e e035 9ebd
00000210: e27c dabd a964 aa3d 20d9 4ebd 1c34 52be
00000220: 0ef4 513e de83 3c3e 4cdc 913e 3b5d a43d
00000230: 93a6 bebd 462a 62be 1f6b 2fbd 6df4 893d
00000240: 8fdb 7d3e e434 9d3e 7abb 95bd e1fb ee3d
00000250: 2409 293d cec1 be3d 4824 43be 6dae 0cbe
00000260: f94a bd3c 52a6 69be 5567 10be 0166 903e
00000270: a17a 083e d351 0cbe 9b33 51be 42b2 0d3e
00000280: ec84 613e b5de afbd 4306 40bd 0b4d 03be
00000290: 6210 823e 5b77 04be a3f4 db3e e032 edbd
000002a0: 3391 8a3e cf72 15be 1c4f 923e 68b5 4e3d
000002b0: 871e 90bd b0ad 553d 6797 7fbe b752 c3bc
000002c0: 6264 193e bffa 993d c519 9d3e 9ff4 45be
000002d0: f73d 643e f6b0 64be 8df0 793d c42b 793e
000002e0: 3f99 c63c 4211 42be 540a 54be 2631 9d3e
000002f0: d626 1f3e 4383 033e e962 30be 71b2 893d
00000300: f4d8 883e 9163 8bbd a25e 003e beb9 dfbd
00000310: 6e1e f7bc 6632 e2bd ba1c f93d 40b6 ffba
00000320: 88a8 053e ae89 bbbb 81ab e73d d218 743e
00000330: 537a 773d 568f 853e f424 a83e c6ce 513d
00000340: 7fe3 87be 56a4 2bbd 0bf4 d5bd 615b bd3d
00000350: 8e98 ccbc 1aa9 e1ba 921e 853e 8929 2e3e
00000360: eb4a 4ebe 82a1 8abe 0840 fbbd 850a cdbd
00000370: bae5 113e 0eb1 4d3e e3e7 0f3e 9087 88bd
00000380: 930e c73d 9acc 883d 425f 1cbe dbec 42be
00000390: 98b1 a33c f6d7 2f3e 0303 b9be 17aa 2bbe
000003a0: d42c 8039 25f4 473e 7707 16be 7262 ffbd
000003b0: 091e d2bd 6102 5a3e 1786 1c3e e3aa 393e
000003c0: 3580 9ebe 4a4a 263e c321 d7bd 2147 143e
000003d0: 4c44 c6be 66e8 043e 802a 1ebd 6374 32be
000003e0: e678 3ebe 59d0 cc3d e268 ca3d aa2f 983e
000003f0: c990 dd3d c3a3 e3bb 5264 11bd c8b7 33be
-0.0077267713 0.05868846 0.1939007 0.10432193 0.24066393 -0.23053238 -0.16998026 0.4606291
-0.011283656 -0.09354683 0.100816056 0.096579604 -0.14451599 -0.054268885 -0.11200845 -0.21545176
0.1182926 -0.07502954 0.2410534 0.13284005 0.34098855 0.0475032 -0.066312306 0.15200628
0.10449967 -0.058695752 0.11991612 -0.02332311 -0.20012169 -0.06263628 -0.06896242 -0.07901519
-0.07000295 0.20006867 0.15401153 0.08941796 -0.1797991 -0.14049342 0.14262822 0.021337908
0.06222741 -0.0026329097 0.019176558 -0.028272009 -0.048687413 0.28939632 -0.09919402 -0.062800676
0.15414494 -0.03270387 -0.06319061 -0.09307903 0.18305393 -0.42025515 0.17311934 -0.14967074
0.0016104684 0.1715602 -0.01345568 -0.013684124 0.04529866 0.11292347 0.019185215 0.2096559
0.07452612 -0.045802318 -0.042991262 -0.10334457 0.21092829 -0.1343055 0.102296114 0.12886131
0.079606965 -0.06306565 -0.0723579 0.1358657 0.036918867 -0.15706515 0.096094176 0.13726625
-0.15297742 0.055376966 0.080398545 0.07215158 -0.07807368 -0.0829032 -0.022357546 -0.1345582
0.09129945 -0.064194806 0.04061111 0.010001615 -0.19480406 -0.17767166 -0.10840381 -0.09748211
0.0191297 -0.021052847 0.09106142 0.10413862 0.1883036 -0.10100318 -0.015202133 -0.011692378
0.014314894 -0.07987651 0.12349428 -0.05925986 0.032866374 -0.053524785 0.17573638 0.015553325
0.02502168 -0.048403386 0.0060195997 -0.18462172 0.13145736 -0.08488273 -0.09922064 0.10818534
-0.084433 0.2258241 0.020139407 0.103981964 0.06883987 -0.09974051 0.013021071 0.2015826
-0.028125107 0.115981154 0.30013707 -0.077251196 -0.10668351 0.08319981 -0.050500035 -0.2052769
0.20503256 0.18409678 0.28488386 0.08025595 -0.09309115 -0.22086439 -0.042826768 0.06736074
0.24790786 0.30704415 -0.07311149 0.11669136 0.041268483 0.09314309 -0.19056809 -0.13738413
0.023107039 -0.22817352 -0.14101918 0.28202823 0.13328029 -0.13703088 -0.20429842 0.13837531
0.22023362 -0.085874 -0.04688097 -0.12822358 0.25403124 -0.12936155 0.4296008 -0.11581969
0.27063903 -0.14594577 0.2857598 0.05046597 -0.07037073 0.052167594 -0.24960099 -0.023843152
0.14979699 0.07518529 0.30683723 -0.19331597 0.22289263 -0.2233313 0.061020423 0.24333102
0.024242995 -0.18951896 -0.20707065 0.3070156 0.15542158 0.12843041 -0.17225231 0.06723488
0.26728022 -0.068061 0.125361 -0.109240994 -0.030165877 -0.11044769 0.12163682 -0.0019509271
0.13052571 -0.0057232 0.11312009 0.23837593 0.06041939 0.2608592 0.32840693 0.051222585
-0.26540753 -0.04190477 -0.10446938 0.09245945 -0.024975087 -0.0017216534 0.25999886 0.17008032
-0.20145766 -0.27076346 -0.12268072 -0.10011772 0.1424779 0.20087072 0.14053302 -0.066664815
0.09719577 0.0667965 -0.15270713 -0.19035666 0.019982144 0.17172226 -0.3613511 -0.16764103
0.00024447462 0.19526727 -0.14651285 -0.12469949 -0.10259635 0.2128997 0.15285526 0.18131594
-0.3095719 0.16239277 -0.105044864 0.14480259 -0.3872398 0.12979278 -0.03861475 -0.1742721
-0.18600807 0.10000677 0.09883286 0.29723865 0.10818631 -0.006947012 -0.035496064 -0.17550576

linear_relu_stack.2.bias f4 [64]
00000000: 6c75 923d d3c7 e0bd b40e 0e3e 161a aa3d
00000010: d32a f43d d3c3 9e3e 426b 82bc 4651 5cbd
00000020: f715 753e 5076 a13d fcef f23c 2415 b23e
00000030: 7f3b df3c 9a9d 683c 082c c9bd 9079 a43d
00000040: 5b65 a33d c5aa 943e 1f8b 133d cbc9 ac3c
00000050: a999 0f3e 051a d83d 5339 1d3d d47e d13d
00000060: c2d5 923e 5d59 d4bd c64c f93d 3d47 b63d
00000070: de89 983c 32b7 d4bd cf83 9b3c 372e a23c
00000080: 76dc 723c 57bb 833e 2dc7 07be f350 843d
00000090: 7383 343d 84d8 29bd dc38 1f3e d305 4bbd
000000a0: 7d76 0b3e 0eb5 c7bc ea1c 9e3b 55d7 903d
000000b0: 9664 4b3e e22a aa3d 5326 a83d 39d5 6a3d
000000c0: 113d 2f3e 6b38 c0bc 2c33 b03e 441b 4c3d
000000d0: 789e 843d a1ef 06be 70fb e8bd 607e 0a3e
000000e0: 9e58 8cbd acc8 9dbd 5237 d13d 8d0e 253d
000000f0: 5913 123e ee8b 73bd 0cee 79bd 7b21 a03e
0.07151303 -0.109756134 0.13872796 0.08305757 0.119222306 0.31008777 -0.015920285 -0.053788446
0.2393416 0.078838944 0.02965545 0.34781754 0.02725005 0.014197731 -0.098228514 0.08030999
0.079783164 0.29036537 0.036021348 0.021092316 0.1402346 0.10551838 0.038384747 0.10229269
0.2867871 -0.10368607 0.121728465 0.089003064 0.018620428 -0.10386504 0.01898375 0.019797428
0.01482307 0.25728866 -0.13259573 0.06460752 0.044070672 -0.04146625 0.15549034 -0.0495661
0.13619418 -0.024378326 0.004825224 0.07072321 0.19862589 0.083089605 0.08210435 0.05733225
0.17113139 -0.023464402 0.3441404 0.04983069 0.06475538 -0.13177349 -0.11376083 0.1352477
-0.0685284 -0.07704291 0.1021563 0.04029708 0.14265193 -0.05945962 -0.061018035 0.31275544

linear_relu_stack.4.weight f4 [10, 64]
00000000: 9dea c53c a3e0 16be e807 05be 1e2b f53e
00000010: 4cf4 97be 095d b53e 7d15 0fbe d2e3 063d
00000020: 75b9 a2be 242d eebd 7982 0fbd bce4 1bbf
00000030: e31c 5e3e aaf7 813e 5a20 193e 7a81 6a3e
00000040: 11b5 c03e b125 12bf a1a4 513c 502f 113f
00000050: e5d0 be3e 76db 393e 6f24 863e dc3c 093f
00000060: 1803 c6be 95bb afbc c6d2 993e ccb0 f1be
00000070: e432 cdbe cc2c 91bd 4d94 adbe c348 f7bd
00000080: 713e 55be c6a7 aa3d af9e 6fbd 798c 023c
00000090: 4ff8 b2be ac3f cb3c d80f 91bd 9f3e 64be
000000a0: 94e6 76be 3a79 aabd 7d70 c73d 6eb6 a4bb
000000b0: 277d 53be 925a 09be e9bf a6be bf58 86bc
000000c0: bb91 9e3e 03cc eabd 4a7c 8bbe de3e 8abb
000000d0: be69 943d 1dea a63e f146 693e 6ae5 d0bd
000000e0: 63bb 56be 7951 a13e 3d29 893c bb87 e6bc
000000f0: 1545 06be 3a74 2d3f 03a9 373e 7f52 7bbe
00000100: 6a59 183f 9fe4 7b3e 2ccf 6ebe dc82 cdbe
00000110: 0168 4e3f ba91 34be a55c 85bd 0f53 1f3f
00000120: 2f1e c93e 2582 b6be d3de 9bbd f194 57be
00000130: 4f5f c8bd 266d eabd 442d 103e 1476 aabd
00000140: 2cc8 89be 7a45 953f f549 943d a96a c7be
00000150: 729a c8be 3635 52be 4dd5 b1be 6a4b 673e
00000160: 0cba e0be 482d f3bd f400 5abd d95d f7ba
00000170: 8090 c53e c065 6fbd e19e 31be 47ff 03be
00000180: 17fa 2ebe 2be8 ccbe 09f9 4dbd 76b8 cfbe
00000190: 99d2 d03e 5a6b 103d 17bd 8f3d 407a 3a3d
000001a0: cbc7 5fbd efe6 e1bd 1f8e 73bd 2ae9 a5be
000001b0: ce06 483c 2dd8 93be 4155 e13d 5e95 40be
000001c0: 2a42 02be 2a16 81bc 3108 36be 6938 c8bb
000001d0: b830 6abe 21e8 28bc 84f9 81bd b926 503b
000001e0: 6677 51be e2e9 90be 10a8 7b3e 9b2b 07be
000001f0: 952b 8dbe 6d5a be3d a0ba 2d3e 3eeb 6ebe
00000200: e56c c93e dc79 95be 3ba8 293f 7dc9 b1be
00000210: 946a 8a3e 573a bdbe 3577 7a3d c12c 00be
00000220: eff2 003e d772 abbd e5f0 18bd 415a 46bf
00000230: 5e61 6abe 9bad c73e 339d 7abd 896d aabe
00000240: 5ac7 553f ae47 94be 496f f3be 8756 013d
00000250: 6714 703c c0cc 1dbe fcd9 abbc b201 ab3d
00000260: 13c4 803c a970 95bd bb04 4d3e 7bd0 8c3e
00000270: 5dcf bd3e 15cb d6bd fc8a 873e 9ece b8bd
00000280: 49b2 193f a104 b1be 2ef0 46bd 7629 263e
00000290: d3f8 2bbf 6f12 4d3d bf11 673f 169a b3bd
000002a0: 642d 173d 9cf3 9e3d 234c ecbc f8e7 18be
000002b0: 074d d2bd 9ca1 12be c1a3 7e3e f152 97be
000002c0: d3ba 963c 1bc4 ad3e f23f 15bd c23b 073f
000002d0: e1b1 22be 781a 0fbd fa54 aabd 4f0b 983e
000002e0: 03ae 24be 41cb 4bbe 447a 3a3e 923f b43a
000002f0: f822 223f 3f57 a13e adf3 3e3c 5b5e 4dbd
00000300: a49e be3b 683c ad3e 0c7d 7f3e ee98 893c
00000310: 349c 50bf 1e8e 34bf ef17 0b3e d620 14bf
00000320: 5600 f1be 874c 5e3e 6cfd a7bd 3dfc d53e
00000330: 2bd4 9f3e 63c7 803e 86bb d2bd 465e 8c3e
00000340: 20c5 513e 5cce 7cbd 6379 aa3e cfd7 813e
00000350: c6f0 53be 8cb6 3a3e 2368 46be 6227 49bd
00000360: fcc4 2ebe 0184 c33e 388a 5dbe cd63 dc3e
00000370: b179 de3e 5ddc d73c cc80 1e3f dc42 463e
00000380: 46e1 05be b1f1 c8be 2b4d d63d 35bf 743e
00000390: 649d 2f3f af34 763d 457c 1cbe f903 9b3e
000003a0: 599f 6e3e 5c97 8b3e e8b8 3bbe bdb2 14bf
000003b0: 7b22 f2bd 9821 833e 61ef 033e 9e6e a03e
000003c0: c3fa 14bf 773a 783e 4b42 85be 3de9 913e
000003d0: ff11 8abe 9fbc 14bd dda0 b43d 04f9 793e
000003e0: 6934 9b3e 9cac 0abe c8f1 c6bc faa6 573e
000003f0: db35 25bf cceb 7cbe bd71 903e f65b d33d
0.024159724 -0.1473413 -0.12991297 0.47884458 -0.2967857 0.35422543 -0.13973041 0.03293211
-0.31782117 -0.11629704 -0.035036538 -0.60895896 0.21690707 0.25384265 0.14953747 0.22900954
0.37638143 -0.5708876 0.012795598 0.5671282 0.3726875 0.18150124 0.26199672 0.5360849
-0.38674235 -0.02145175 0.3004362 -0.47205198 -0.4007789 -0.070886225 -0.33902207 -0.12074425
-0.20824601 0.083327815 -0.05850094 0.007968062 -0.3495507 0.024810635 -0.070831 -0.22289513
-0.24111396 -0.083239034 0.09738252 -0.00502663 -0.2065321 -0.13413456 -0.3256829 -0.01639974
0.3097056 -0.114646934 -0.27243263 -0.00421892 0.07246731 0.3260049 0.22780968 -0.10200007
-0.2096992 0.3150747 0.016743297 -0.028140893 -0.1311229 0.6775547 0.17935567 -0.24543189
0.59511435 0.24598931 -0.23321217 -0.401389 0.8062745 -0.17633715 -0.06511811 0.6223611
0.3928084 -0.35646167 -0.0761086 -0.2105291 -0.09783804 -0.114466 0.14079767 -0.08323303
-0.26910532 1.1661828 0.07240669 -0.38948563 -0.39180332 -0.20528111 -0.34733048 0.22587362
-0.43891943 -0.11873871 -0.053223565 -0.0018872573 0.38586807 -0.058446646 -0.17345764 -0.1289035
-0.17087589 -0.4002088 -0.050286327 -0.4057042 0.40785673 0.03525863 0.07018488 0.045526743
-0.054633897 -0.11030375 -0.05946171 -0.32404453 0.012208654 -0.28875867 0.11002589 -0.18806979
-0.12720552 -0.015757639 -0.17776562 -0.0061102402 -0.22870147 -0.01030925 -0.063464195 0.0031761362
-0.20455703 -0.28303438 0.2457583 -0.13200228 -0.27572313 0.09294591 0.16965723 -0.23331925
0.39340892 -0.29194534 0.66272324 -0.34724036 0.27034438 -0.36958572 0.06114884 -0.12517072
0.12592672 -0.08371513 -0.03733911 -0.77481467 -0.22888705 0.38999638 -0.061185073 -0.33286694
0.8350731 -0.28960937 -0.4754584 0.03157666 0.014653302 -0.15410137 -0.020977966 0.08349933
0.015718495 -0.07296879 0.20021336 0.27502808 0.37072268 -0.104879536 0.26473224 -0.09023784
0.60037667 -0.34573844 -0.048568897 0.16226754 -0.6717655 0.050066408 0.90261453 -0.08769624
0.036908522 0.077613086 -0.028844899 -0.14932239 -0.10268598 -0.14319462 0.24867155 -0.29555467
0.018399632 0.3393868 -0.036437936 0.5282556 -0.15888168 -0.034937352 -0.08316989 0.29696128
-0.16082005 -0.19901754 0.18210703 0.0013751856 0.6333461 0.31511876 0.0116547765 -0.050138813
0.0058172513 0.3383515 0.24950045 0.016796555 -0.8148835 -0.70529354 0.13583349 -0.57862604
-0.4707057 0.2170888 -0.08202633 0.41794005 0.3121656 0.2515212 -0.102896735 0.27415675
0.20485353 -0.061720237 0.33295736 0.2535996 -0.20697317 0.18233699 -0.19375663 -0.049109824
-0.17067331 0.38186648 -0.21634758 0.43044892 0.43452218 0.026350195 0.6191528 0.19361442
-0.13074216 -0.39246896 0.10463937 0.23901065 0.68599534 0.060108837 -0.1528178 0.30276468
0.23302974 0.27263916 -0.18332255 -0.5808523 -0.11822983 0.25611567 0.12884285 0.31334394
-0.5819513 0.24241053 -0.2602714 0.2849826 -0.26966855 -0.036312696 0.08819745 0.24411398
0.30313423 -0.13542408 -0.024285212 0.2105979 -0.645353 -0.24699324 0.28211775 0.103202745

linear_relu_stack.4.bias f4 [10]
00000000: 083a 88be 7d0e 8b3e cc1b b73d 4002 d1bd
00000010: b918 293e 216e 163e 5efa e8bd 020c b43d
00000020: a8b8 a0bd 6746 553e
-0.26606774 0.2715949 0.08940849 -0.10205507 0.16513337 0.14690448 -0.11375879 0.08791353
-0.078477204 0.20827638
